…
    "test_data = torch.load(data_path+\"/cifar/test_data.pt\")\n",
    "test_label = torch.load(data_path+\"/cifar/test_label.pt\")\n",
    "# Review data\n",
    "print(train_data.size())\n",
    "print(test_data.size())\n",
    "mean = train_data.mean().to(device)\n",
    "std = train_data.std().to(device)"
   ]
  },
  {
   "cell_type": "markdown",
   "execution_count": 11,
   "metadata": {},
   "outputs": [],
   "source": [
    "### Make a VGG net"
   ]
  },
  {
   "cell_type": "code",
   "execution_count": 13,
   "metadata": {},
   "outputs": [
    {
     "name": "stdout",
     "output_type": "stream",
     "text": "VGG(\n  (conv1a): Conv2d(3, 64, kernel_size=(3, 3), stride=(1, 1), padding=(1, 1))\n  (conv1b): Conv2d(64, 64, kernel_size=(3, 3), stride=(1, 1), padding=(1, 1))\n  (pool1): MaxPool2d(kernel_size=2, stride=2, padding=0, dilation=1, ceil_mode=False)\n  (conv2a): Conv2d(64, 128, kernel_size=(3, 3), stride=(1, 1), padding=(1, 1))\n  (conv2b): Conv2d(128, 128, kernel_size=(3, 3), stride=(1, 1), padding=(1, 1))\n  (pool2): MaxPool2d(kernel_size=2, stride=2, padding=0, dilation=1, ceil_mode=False)\n  (conv3a): Conv2d(128, 256, kernel_size=(3, 3), stride=(1, 1), padding=(1, 1))\n  (conv3b): Conv2d(256, 256, kernel_size=(3, 3), stride=(1, 1), padding=(1, 1))\n  (pool3): MaxPool2d(kernel_size=2, stride=2, padding=0, dilation=1, ceil_mode=False)\n  (conv4a): Conv2d(256, 512, kernel_size=(3, 3), stride=(1, 1), padding=(1, 1))\n  (pool4): MaxPool2d(kernel_size=2, stride=2, padding=0, dilation=1, ceil_mode=False)\n  (linear1): Linear(in_features=2048, out_features=4096, bias=False)\n  (linear2): Linear(in_features=4096, out_features=4096, bias=False)\n  (linear3): Linear(in_features=4096, out_features=10, bias=False)\n)\nThere are 27532352 (27.53 million) parameters in this neural network\n"
    }
   ],
   "source": [
    "class VGG(nn.Module):\n",
    "    def __init__(self):\n",
    "        super(VGG, self).__init__()\n",
    "\n",
    "        #Block 1: 3x32x32 -> 64x16x16\n",
    "        self.conv1a = nn.Conv2d(3,64, kernel_size=3, padding=1)\n",
    "        self.conv1b = nn.Conv2d(64,64, kernel_size=3, padding=1)\n",
…
