…
    "        error = utils.get_error(scores, minibatch_label)\n",
    "        running_error += error.item()\n",
    "        num_batches += 1\n",
    "    \n",
    "    total_error = running_error/num_batches*100\n",
    "    print(\"Error on test set={:.2f}%\".format(total_error))\n"
   ]
  },
  {
   "cell_type": "markdown",
   "execution_count": 17,
   "metadata": {},
   "outputs": [],
   "source": [
    "### Running 20 epochs on the trainning set"
   ]
  },
  {
   "cell_type": "code",
   "execution_count": 37,
   "metadata": {},
   "outputs": [
    {
     "name": "stdout",
     "output_type": "stream",
     "text": "VGG(\n  (conv1a): Conv2d(3, 64, kernel_size=(3, 3), stride=(1, 1), padding=(1, 1))\n  (conv1b): Conv2d(64, 64, kernel_size=(3, 3), stride=(1, 1), padding=(1, 1))\n  (pool1): MaxPool2d(kernel_size=2, stride=2, padding=0, dilation=1, ceil_mode=False)\n  (conv2a): Conv2d(64, 128, kernel_size=(3, 3), stride=(1, 1), padding=(1, 1))\n  (conv2b): Conv2d(128, 128, kernel_size=(3, 3), stride=(1, 1), padding=(1, 1))\n  (pool2): MaxPool2d(kernel_size=2, stride=2, padding=0, dilation=1, ceil_mode=False)\n  (conv3a): Conv2d(128, 256, kernel_size=(3, 3), stride=(1, 1), padding=(1, 1))\n  (conv3b): Conv2d(256, 256, kernel_size=(3, 3), stride=(1, 1), padding=(1, 1))\n  (pool3): MaxPool2d(kernel_size=2, stride=2, padding=0, dilation=1, ceil_mode=False)\n  (conv4a): Conv2d(256, 512, kernel_size=(3, 3), stride=(1, 1), padding=(1, 1))\n  (pool4): MaxPool2d(kernel_size=2, stride=2, padding=0, dilation=1, ceil_mode=False)\n  (linear1): Linear(in_features=2048, out_features=4096, bias=False)\n  (linear2): Linear(in_features=4096, out_features=4096, bias=False)\n  (linear3): Linear(in_features=4096, out_features=10, bias=False)\n)\nThere are 27532352 (27.53 million) parameters in this neural network\n"
    }
   ],
   "source": [
    "net = VGG().to(device)\n",
    "print(net)\n",
    "utils.display_num_param(net)\n",
    "\n",
    "start = time.time()\n",
    "for epoch in range(20):\n",
    "    running_error = 0\n",
    "    running_loss = 0\n",
    "    num_batches = 0\n",
…
